…
213.7s 3419 /opt/conda/lib/python3.7/site-packages/IPython/utils/traitlets.py:5: UserWarning: IPython.utils.traitlets has moved to a top-level traitlets package.
213.7s 3420 warn("IPython.utils.traitlets has moved to a top-level traitlets package.")
214.0s 3421 [0m[5m[31mWARNING[0m [32m[11/10 15:58:48 d2.data.datasets.coco]: [0m
214.0s 3422 Category ids in annotations are not in [1, #categories]! We'll apply a mapping for you.
214.0s 3423 
214.0s 3424 [32m[11/10 15:58:48 d2.data.datasets.coco]: [0mLoaded 2069 images in COCO format from ./train/_annotations.coco.json
219.6s 3425 [32m[11/10 15:58:53 d2.engine.defaults]: [0mModel:
219.6s 3426 GeneralizedRCNN(
219.6s 3427 (backbone): FPN(
219.6s 3428 (fpn_lateral2): Conv2d(256, 256, kernel_size=(1, 1), stride=(1, 1))
219.6s 3429 (fpn_output2): Conv2d(256, 256, kernel_size=(3, 3), stride=(1, 1), padding=(1, 1))
219.6s 3430 (fpn_lateral3): Conv2d(512, 256, kernel_size=(1, 1), stride=(1, 1))
219.6s 3431 (fpn_output3): Conv2d(256, 256, kernel_size=(3, 3), stride=(1, 1), padding=(1, 1))
219.6s 3432 (fpn_lateral4): Conv2d(1024, 256, kernel_size=(1, 1), stride=(1, 1))
219.6s 3433 (fpn_output4): Conv2d(256, 256, kernel_size=(3, 3), stride=(1, 1), padding=(1, 1))
219.6s 3434 (fpn_lateral5): Conv2d(2048, 256, kernel_size=(1, 1), stride=(1, 1))
219.6s 3435 (fpn_output5): Conv2d(256, 256, kernel_size=(3, 3), stride=(1, 1), padding=(1, 1))
219.6s 3436 (top_block): LastLevelMaxPool()
219.6s 3437 (bottom_up): ResNet(
219.6s 3438 (stem): BasicStem(
219.6s 3439 (conv1): Conv2d(
219.6s 3440 3, 64, kernel_size=(7, 7), stride=(2, 2), padding=(3, 3), bias=False
219.6s 3441 (norm): FrozenBatchNorm2d(num_features=64, eps=1e-05)
219.6s 3442 )
219.6s 3443 )
219.6s 3444 (res2): Sequential(
219.6s 3445 (0): BottleneckBlock(
219.6s 3446 (shortcut): Conv2d(
219.6s 3447 64, 256, kernel_size=(1, 1), stride=(1, 1), bias=False
219.6s 3448 (norm): FrozenBatchNorm2d(num_features=256, eps=1e-05)
219.6s 3449 )
219.6s 3450 (conv1): Conv2d(
219.6s 3451 64, 256, kernel_size=(1, 1), stride=(1, 1), bias=False
219.6s 3452 (norm): FrozenBatchNorm2d(num_features=256, eps=1e-05)
219.6s 3453 )
219.6s 3454 (conv2): Conv2d(
219.6s 3455 256, 256, kernel_size=(3, 3), stride=(1, 1), padding=(1, 1), groups=32, bias=False
219.6s 3456 (norm): FrozenBatchNorm2d(num_features=256, eps=1e-05)
219.6s 3457 )
219.6s 3458 (conv3): Conv2d(
219.6s 3459 256, 256, kernel_size=(1, 1), stride=(1, 1), bias=False
219.6s 3460 (norm): FrozenBatchNorm2d(num_features=256, eps=1e-05)
219.6s 3461 )
219.6s 3462 )
219.6s 3463 (1): BottleneckBlock(
219.6s 3464 (conv1): Conv2d(
219.6s 3465 256, 256, kernel_size=(1, 1), stride=(1, 1), bias=False
219.6s 3466 (norm): FrozenBatchNorm2d(num_features=256, eps=1e-05)
219.6s 3467 )
219.6s 3468 (conv2): Conv2d(
219.6s 3469 256, 256, kernel_size=(3, 3), stride=(1, 1), padding=(1, 1), groups=32, bias=False
219.6s 3470 (norm): FrozenBatchNorm2d(num_features=256, eps=1e-05)
219.6s 3471 )
219.6s 3472 (conv3): Conv2d(
219.6s 3473 256, 256, kernel_size=(1, 1), stride=(1, 1), bias=False
219.6s 3474 (norm): FrozenBatchNorm2d(num_features=256, eps=1e-05)
219.6s 3475 )
219.6s 3476 )
219.6s 3477 (2): BottleneckBlock(
219.6s 3478 (conv1): Conv2d(
219.6s 3479 256, 256, kernel_size=(1, 1), stride=(1, 1), bias=False
219.6s 3480 (norm): FrozenBatchNorm2d(num_features=256, eps=1e-05)
219.6s 3481 )
219.6s 3482 (conv2): Conv2d(
219.6s 3483 256, 256, kernel_size=(3, 3), stride=(1, 1), padding=(1, 1), groups=32, bias=False
219.6s 3484 (norm): FrozenBatchNorm2d(num_features=256, eps=1e-05)
219.6s 3485 )
219.6s 3486 (conv3): Conv2d(
219.6s 3487 256, 256, kernel_size=(1, 1), stride=(1, 1), bias=False
219.6s 3488 (norm): FrozenBatchNorm2d(num_features=256, eps=1e-05)
219.6s 3489 )
219.6s 3490 )
219.6s 3491 )
219.6s 3492 (res3): Sequential(
219.6s 3493 (0): BottleneckBlock(
219.6s 3494 (shortcut): Conv2d(
219.6s 3495 256, 512, kernel_size=(1, 1), stride=(2, 2), bias=False
219.6s 3496 (norm): FrozenBatchNorm2d(num_features=512, eps=1e-05)
219.6s 3497 )
219.6s 3498 (conv1): Conv2d(
219.6s 3499 256, 512, kernel_size=(1, 1), stride=(1, 1), bias=False
219.6s 3500 (norm): FrozenBatchNorm2d(num_features=512, eps=1e-05)
219.6s 3501 )
219.6s 3502 (conv2): Conv2d(
219.6s 3503 512, 512, kernel_size=(3, 3), stride=(2, 2), padding=(1, 1), groups=32, bias=False
219.6s 3504 (norm): FrozenBatchNorm2d(num_features=512, eps=1e-05)
219.6s 3505 )
219.6s 3506 (conv3): Conv2d(
219.6s 3507 512, 512, kernel_size=(1, 1), stride=(1, 1), bias=False
219.6s 3508 (norm): FrozenBatchNorm2d(num_features=512, eps=1e-05)
219.6s 3509 )
219.6s 3510 )
219.6s 3511 (1): BottleneckBlock(
219.6s 3512 (conv1): Conv2d(
219.6s 3513 512, 512, kernel_size=(1, 1), stride=(1, 1), bias=False
219.6s 3514 (norm): FrozenBatchNorm2d(num_features=512, eps=1e-05)
219.6s 3515 )
219.6s 3516 (conv2): Conv2d(
219.6s 3517 512, 512, kernel_size=(3, 3), stride=(1, 1), padding=(1, 1), groups=32, bias=False
219.6s 3518 (norm): FrozenBatchNorm2d(num_features=512, eps=1e-05)
219.6s 3519 )
219.6s 3520 (conv3): Conv2d(
219.6s 3521 512, 512, kernel_size=(1, 1), stride=(1, 1), bias=False
219.6s 3522 (norm): FrozenBatchNorm2d(num_features=512, eps=1e-05)
219.6s 3523 )
219.6s 3524 )
219.6s 3525 (2): BottleneckBlock(
219.6s 3526 (conv1): Conv2d(
219.6s 3527 512, 512, kernel_size=(1, 1), stride=(1, 1), bias=False
219.6s 3528 (norm): FrozenBatchNorm2d(num_features=512, eps=1e-05)
219.6s 3529 )
219.6s 3530 (conv2): Conv2d(
219.6s 3531 512, 512, kernel_size=(3, 3), stride=(1, 1), padding=(1, 1), groups=32, bias=False
219.6s 3532 (norm): FrozenBatchNorm2d(num_features=512, eps=1e-05)
219.6s 3533 )
219.6s 3534 (conv3): Conv2d(
219.6s 3535 512, 512, kernel_size=(1, 1), stride=(1, 1), bias=False
219.6s 3536 (norm): FrozenBatchNorm2d(num_features=512, eps=1e-05)
219.6s 3537 )
219.6s 3538 )
219.6s 3539 (3): BottleneckBlock(
219.6s 3540 (conv1): Conv2d(
219.6s 3541 512, 512, kernel_size=(1, 1), stride=(1, 1), bias=False
219.6s 3542 (norm): FrozenBatchNorm2d(num_features=512, eps=1e-05)
219.6s 3543 )
219.6s 3544 (conv2): Conv2d(
219.6s 3545 512, 512, kernel_size=(3, 3), stride=(1, 1), padding=(1, 1), groups=32, bias=False
219.6s 3546 (norm): FrozenBatchNorm2d(num_features=512, eps=1e-05)
219.6s 3547 )
219.6s 3548 (conv3): Conv2d(
219.6s 3549 512, 512, kernel_size=(1, 1), stride=(1, 1), bias=False
219.6s 3550 (norm): FrozenBatchNorm2d(num_features=512, eps=1e-05)
219.6s 3551 )
219.6s 3552 )
219.6s 3553 )
219.6s 3554 (res4): Sequential(
219.6s 3555 (0): BottleneckBlock(
219.6s 3556 (shortcut): Conv2d(
219.6s 3557 512, 1024, kernel_size=(1, 1), stride=(2, 2), bias=False
219.6s 3558 (norm): FrozenBatchNorm2d(num_features=1024, eps=1e-05)
219.6s 3559 )
219.6s 3560 (conv1): Conv2d(
219.6s 3561 512, 1024, kernel_size=(1, 1), stride=(1, 1), bias=False
219.6s 3562 (norm): FrozenBatchNorm2d(num_features=1024, eps=1e-05)
219.6s 3563 )
219.6s 3564 (conv2): Conv2d(
219.6s 3565 1024, 1024, kernel_size=(3, 3), stride=(2, 2), padding=(1, 1), groups=32, bias=False
219.6s 3566 (norm): FrozenBatchNorm2d(num_features=1024, eps=1e-05)
219.6s 3567 )
219.6s 3568 (conv3): Conv2d(
219.6s 3569 1024, 1024, kernel_size=(1, 1), stride=(1, 1), bias=False
219.6s 3570 (norm): FrozenBatchNorm2d(num_features=1024, eps=1e-05)
219.6s 3571 )
219.6s 3572 )
219.6s 3573 (1): BottleneckBlock(
219.6s 3574 (conv1): Conv2d(
219.6s 3575 1024, 1024, kernel_size=(1, 1), stride=(1, 1), bias=False
219.6s 3576 (norm): FrozenBatchNorm2d(num_features=1024, eps=1e-05)
219.6s 3577 )
219.6s 3578 (conv2): Conv2d(
219.6s 3579 1024, 1024, kernel_size=(3, 3), stride=(1, 1), padding=(1, 1), groups=32, bias=False
219.6s 3580 (norm): FrozenBatchNorm2d(num_features=1024, eps=1e-05)
219.6s 3581 )
219.6s 3582 (conv3): Conv2d(
219.6s 3583 1024, 1024, kernel_size=(1, 1), stride=(1, 1), bias=False
219.6s 3584 (norm): FrozenBatchNorm2d(num_features=1024, eps=1e-05)
219.6s 3585 )
219.6s 3586 )
219.6s 3587 (2): BottleneckBlock(
219.6s 3588 (conv1): Conv2d(
219.6s 3589 1024, 1024, kernel_size=(1, 1), stride=(1, 1), bias=False
219.6s 3590 (norm): FrozenBatchNorm2d(num_features=1024, eps=1e-05)
219.6s 3591 )
219.6s 3592 (conv2): Conv2d(
219.6s 3593 1024, 1024, kernel_size=(3, 3), stride=(1, 1), padding=(1, 1), groups=32, bias=False
219.6s 3594 (norm): FrozenBatchNorm2d(num_features=1024, eps=1e-05)
219.6s 3595 )
219.6s 3596 (conv3): Conv2d(
219.6s 3597 1024, 1024, kernel_size=(1, 1), stride=(1, 1), bias=False
219.6s 3598 (norm): FrozenBatchNorm2d(num_features=1024, eps=1e-05)
219.6s 3599 )
219.6s 3600 )
219.6s 3601 (3): BottleneckBlock(
219.6s 3602 (conv1): Conv2d(
219.6s 3603 1024, 1024, kernel_size=(1, 1), stride=(1, 1), bias=False
219.6s 3604 (norm): FrozenBatchNorm2d(num_features=1024, eps=1e-05)
219.6s 3605 )
219.6s 3606 (conv2): Conv2d(
219.6s 3607 1024, 1024, kernel_size=(3, 3), stride=(1, 1), padding=(1, 1), groups=32, bias=False
219.6s 3608 (norm): FrozenBatchNorm2d(num_features=1024, eps=1e-05)
219.6s 3609 )
219.6s 3610 (conv3): Conv2d(
219.6s 3611 1024, 1024, kernel_size=(1, 1), stride=(1, 1), bias=False
219.6s 3612 (norm): FrozenBatchNorm2d(num_features=1024, eps=1e-05)
219.6s 3613 )
219.6s 3614 )
219.6s 3615 (4): BottleneckBlock(
219.6s 3616 (conv1): Conv2d(
219.6s 3617 1024, 1024, kernel_size=(1, 1), stride=(1, 1), bias=False
219.6s 3618 (norm): FrozenBatchNorm2d(num_features=1024, eps=1e-05)
219.6s 3619 )
219.6s 3620 (conv2): Conv2d(
219.6s 3621 1024, 1024, kernel_size=(3, 3), stride=(1, 1), padding=(1, 1), groups=32, bias=False
219.6s 3622 (norm): FrozenBatchNorm2d(num_features=1024, eps=1e-05)
219.6s 3623 )
219.6s 3624 (conv3): Conv2d(
219.6s 3625 1024, 1024, kernel_size=(1, 1), stride=(1, 1), bias=False
219.6s 3626 (norm): FrozenBatchNorm2d(num_features=1024, eps=1e-05)
219.6s 3627 )
219.6s 3628 )
219.6s 3629 (5): BottleneckBlock(
219.6s 3630 (conv1): Conv2d(
219.6s 3631 1024, 1024, kernel_size=(1, 1), stride=(1, 1), bias=False
219.6s 3632 (norm): FrozenBatchNorm2d(num_features=1024, eps=1e-05)
219.6s 3633 )
219.6s 3634 (conv2): Conv2d(
219.6s 3635 1024, 1024, kernel_size=(3, 3), stride=(1, 1), padding=(1, 1), groups=32, bias=False
219.6s 3636 (norm): FrozenBatchNorm2d(num_features=1024, eps=1e-05)
219.6s 3637 )
219.6s 3638 (conv3): Conv2d(
219.6s 3639 1024, 1024, kernel_size=(1, 1), stride=(1, 1), bias=False
219.6s 3640 (norm): FrozenBatchNorm2d(num_features=1024, eps=1e-05)
219.6s 3641 )
219.6s 3642 )
219.6s 3643 (6): BottleneckBlock(
219.6s 3644 (conv1): Conv2d(
219.6s 3645 1024, 1024, kernel_size=(1, 1), stride=(1, 1), bias=False
219.6s 3646 (norm): FrozenBatchNorm2d(num_features=1024, eps=1e-05)
219.6s 3647 )
219.6s 3648 (conv2): Conv2d(
219.6s 3649 1024, 1024, kernel_size=(3, 3), stride=(1, 1), padding=(1, 1), groups=32, bias=False
219.6s 3650 (norm): FrozenBatchNorm2d(num_features=1024, eps=1e-05)
219.6s 3651 )
219.6s 3652 (conv3): Conv2d(
219.6s 3653 1024, 1024, kernel_size=(1, 1), stride=(1, 1), bias=False
219.6s 3654 (norm): FrozenBatchNorm2d(num_features=1024, eps=1e-05)
219.6s 3655 )
219.6s 3656 )
219.6s 3657 (7): BottleneckBlock(
219.6s 3658 (conv1): Conv2d(
219.6s 3659 1024, 1024, kernel_size=(1, 1), stride=(1, 1), bias=False
219.6s 3660 (norm): FrozenBatchNorm2d(num_features=1024, eps=1e-05)
219.6s 3661 )
219.6s 3662 (conv2): Conv2d(
219.6s 3663 1024, 1024, kernel_size=(3, 3), stride=(1, 1), padding=(1, 1), groups=32, bias=False
219.6s 3664 (norm): FrozenBatchNorm2d(num_features=1024, eps=1e-05)
219.6s 3665 )
219.6s 3666 (conv3): Conv2d(
219.6s 3667 1024, 1024, kernel_size=(1, 1), stride=(1, 1), bias=False
219.6s 3668 (norm): FrozenBatchNorm2d(num_features=1024, eps=1e-05)
219.6s 3669 )
219.6s 3670 )
219.6s 3671 (8): BottleneckBlock(
219.6s 3672 (conv1): Conv2d(
219.6s 3673 1024, 1024, kernel_size=(1, 1), stride=(1, 1), bias=False
219.6s 3674 (norm): FrozenBatchNorm2d(num_features=1024, eps=1e-05)
219.6s 3675 )
219.6s 3676 (conv2): Conv2d(
219.6s 3677 1024, 1024, kernel_size=(3, 3), stride=(1, 1), padding=(1, 1), groups=32, bias=False
219.6s 3678 (norm): FrozenBatchNorm2d(num_features=1024, eps=1e-05)
219.6s 3679 )
219.6s 3680 (conv3): Conv2d(
219.6s 3681 1024, 1024, kernel_size=(1, 1), stride=(1, 1), bias=False
219.6s 3682 (norm): FrozenBatchNorm2d(num_features=1024, eps=1e-05)
219.6s 3683 )
219.6s 3684 )
219.6s 3685 (9): BottleneckBlock(
219.6s 3686 (conv1): Conv2d(
219.6s 3687 1024, 1024, kernel_size=(1, 1), stride=(1, 1), bias=False
219.6s 3688 (norm): FrozenBatchNorm2d(num_features=1024, eps=1e-05)
219.6s 3689 )
219.6s 3690 (conv2): Conv2d(
219.6s 3691 1024, 1024, kernel_size=(3, 3), stride=(1, 1), padding=(1, 1), groups=32, bias=False
219.6s 3692 (norm): FrozenBatchNorm2d(num_features=1024, eps=1e-05)
219.6s 3693 )
219.6s 3694 (conv3): Conv2d(
219.6s 3695 1024, 1024, kernel_size=(1, 1), stride=(1, 1), bias=False
219.6s 3696 (norm): FrozenBatchNorm2d(num_features=1024, eps=1e-05)
219.6s 3697 )
219.6s 3698 )
219.6s 3699 (10): BottleneckBlock(
219.6s 3700 (conv1): Conv2d(
219.6s 3701 1024, 1024, kernel_size=(1, 1), stride=(1, 1), bias=False
219.6s 3702 (norm): FrozenBatchNorm2d(num_features=1024, eps=1e-05)
219.6s 3703 )
219.6s 3704 (conv2): Conv2d(
219.6s 3705 1024, 1024, kernel_size=(3, 3), stride=(1, 1), padding=(1, 1), groups=32, bias=False
219.6s 3706 (norm): FrozenBatchNorm2d(num_features=1024, eps=1e-05)
219.6s 3707 )
219.6s 3708 (conv3): Conv2d(
219.6s 3709 1024, 1024, kernel_size=(1, 1), stride=(1, 1), bias=False
219.6s 3710 (norm): FrozenBatchNorm2d(num_features=1024, eps=1e-05)
219.6s 3711 )
219.6s 3712 )
219.6s 3713 (11): BottleneckBlock(
219.6s 3714 (conv1): Conv2d(
219.6s 3715 1024, 1024, kernel_size=(1, 1), stride=(1, 1), bias=False
219.6s 3716 (norm): FrozenBatchNorm2d(num_features=1024, eps=1e-05)
219.6s 3717 )
219.6s 3718 (conv2): Conv2d(
219.6s 3719 1024, 1024, kernel_size=(3, 3), stride=(1, 1), padding=(1, 1), groups=32, bias=False
219.6s 3720 (norm): FrozenBatchNorm2d(num_features=1024, eps=1e-05)
219.6s 3721 )
219.6s 3722 (conv3): Conv2d(
219.6s 3723 1024, 1024, kernel_size=(1, 1), stride=(1, 1), bias=False
219.6s 3724 (norm): FrozenBatchNorm2d(num_features=1024, eps=1e-05)
219.6s 3725 )
219.6s 3726 )
219.6s 3727 (12): BottleneckBlock(
219.6s 3728 (conv1): Conv2d(
219.6s 3729 1024, 1024, kernel_size=(1, 1), stride=(1, 1), bias=False
219.6s 3730 (norm): FrozenBatchNorm2d(num_features=1024, eps=1e-05)
219.6s 3731 )
219.6s 3732 (conv2): Conv2d(
219.6s 3733 1024, 1024, kernel_size=(3, 3), stride=(1, 1), padding=(1, 1), groups=32, bias=False
219.6s 3734 (norm): FrozenBatchNorm2d(num_features=1024, eps=1e-05)
219.6s 3735 )
219.6s 3736 (conv3): Conv2d(
219.6s 3737 1024, 1024, kernel_size=(1, 1), stride=(1, 1), bias=False
219.6s 3738 (norm): FrozenBatchNorm2d(num_features=1024, eps=1e-05)
219.6s 3739 )
219.6s 3740 )
219.6s 3741 (13): BottleneckBlock(
219.6s 3742 (conv1): Conv2d(
219.6s 3743 1024, 1024, kernel_size=(1, 1), stride=(1, 1), bias=False
219.6s 3744 (norm): FrozenBatchNorm2d(num_features=1024, eps=1e-05)
219.6s 3745 )
219.6s 3746 (conv2): Conv2d(
219.6s 3747 1024, 1024, kernel_size=(3, 3), stride=(1, 1), padding=(1, 1), groups=32, bias=False
219.6s 3748 (norm): FrozenBatchNorm2d(num_features=1024, eps=1e-05)
219.6s 3749 )
219.6s 3750 (conv3): Conv2d(
219.6s 3751 1024, 1024, kernel_size=(1, 1), stride=(1, 1), bias=False
219.6s 3752 (norm): FrozenBatchNorm2d(num_features=1024, eps=1e-05)
219.6s 3753 )
219.6s 3754 )
219.6s 3755 (14): BottleneckBlock(
219.6s 3756 (conv1): Conv2d(
219.6s 3757 1024, 1024, kernel_size=(1, 1), stride=(1, 1), bias=False
219.6s 3758 (norm): FrozenBatchNorm2d(num_features=1024, eps=1e-05)
219.6s 3759 )
219.6s 3760 (conv2): Conv2d(
219.6s 3761 1024, 1024, kernel_size=(3, 3), stride=(1, 1), padding=(1, 1), groups=32, bias=False
219.6s 3762 (norm): FrozenBatchNorm2d(num_features=1024, eps=1e-05)
219.6s 3763 )
219.6s 3764 (conv3): Conv2d(
219.6s 3765 1024, 1024, kernel_size=(1, 1), stride=(1, 1), bias=False
219.6s 3766 (norm): FrozenBatchNorm2d(num_features=1024, eps=1e-05)
219.6s 3767 )
219.6s 3768 )
219.6s 3769 (15): BottleneckBlock(
219.6s 3770 (conv1): Conv2d(
219.6s 3771 1024, 1024, kernel_size=(1, 1), stride=(1, 1), bias=False
219.6s 3772 (norm): FrozenBatchNorm2d(num_features=1024, eps=1e-05)
219.6s 3773 )
219.6s 3774 (conv2): Conv2d(
219.6s 3775 1024, 1024, kernel_size=(3, 3), stride=(1, 1), padding=(1, 1), groups=32, bias=False
219.6s 3776 (norm): FrozenBatchNorm2d(num_features=1024, eps=1e-05)
219.6s 3777 )
219.6s 3778 (conv3): Conv2d(
219.6s 3779 1024, 1024, kernel_size=(1, 1), stride=(1, 1), bias=False
219.6s 3780 (norm): FrozenBatchNorm2d(num_features=1024, eps=1e-05)
219.6s 3781 )
219.6s 3782 )
219.6s 3783 (16): BottleneckBlock(
219.6s 3784 (conv1): Conv2d(
219.6s 3785 1024, 1024, kernel_size=(1, 1), stride=(1, 1), bias=False
219.6s 3786 (norm): FrozenBatchNorm2d(num_features=1024, eps=1e-05)
219.6s 3787 )
219.6s 3788 (conv2): Conv2d(
219.6s 3789 1024, 1024, kernel_size=(3, 3), stride=(1, 1), padding=(1, 1), groups=32, bias=False
219.6s 3790 (norm): FrozenBatchNorm2d(num_features=1024, eps=1e-05)
219.6s 3791 )
219.6s 3792 (conv3): Conv2d(
219.6s 3793 1024, 1024, kernel_size=(1, 1), stride=(1, 1), bias=False
219.6s 3794 (norm): FrozenBatchNorm2d(num_features=1024, eps=1e-05)
219.6s 3795 )
219.6s 3796 )
219.6s 3797 (17): BottleneckBlock(
219.6s 3798 (conv1): Conv2d(
219.6s 3799 1024, 1024, kernel_size=(1, 1), stride=(1, 1), bias=False
219.6s 3800 (norm): FrozenBatchNorm2d(num_features=1024, eps=1e-05)
219.6s 3801 )
219.6s 3802 (conv2): Conv2d(
219.6s 3803 1024, 1024, kernel_size=(3, 3), stride=(1, 1), padding=(1, 1), groups=32, bias=False
219.6s 3804 (norm): FrozenBatchNorm2d(num_features=1024, eps=1e-05)
219.6s 3805 )
219.6s 3806 (conv3): Conv2d(
219.6s 3807 1024, 1024, kernel_size=(1, 1), stride=(1, 1), bias=False
219.6s 3808 (norm): FrozenBatchNorm2d(num_features=1024, eps=1e-05)
219.6s 3809 )
219.6s 3810 )
219.6s 3811 (18): BottleneckBlock(
219.6s 3812 (conv1): Conv2d(
219.6s 3813 1024, 1024, kernel_size=(1, 1), stride=(1, 1), bias=False
219.6s 3814 (norm): FrozenBatchNorm2d(num_features=1024, eps=1e-05)
219.6s 3815 )
219.6s 3816 (conv2): Conv2d(
219.6s 3817 1024, 1024, kernel_size=(3, 3), stride=(1, 1), padding=(1, 1), groups=32, bias=False
219.6s 3818 (norm): FrozenBatchNorm2d(num_features=1024, eps=1e-05)
219.6s 3819 )
219.6s 3820 (conv3): Conv2d(
219.6s 3821 1024, 1024, kernel_size=(1, 1), stride=(1, 1), bias=False
219.6s 3822 (norm): FrozenBatchNorm2d(num_features=1024, eps=1e-05)
219.6s 3823 )
219.6s 3824 )
219.6s 3825 (19): BottleneckBlock(
219.6s 3826 (conv1): Conv2d(
219.6s 3827 1024, 1024, kernel_size=(1, 1), stride=(1, 1), bias=False
219.6s 3828 (norm): FrozenBatchNorm2d(num_features=1024, eps=1e-05)
219.6s 3829 )
219.6s 3830 (conv2): Conv2d(
219.6s 3831 1024, 1024, kernel_size=(3, 3), stride=(1, 1), padding=(1, 1), groups=32, bias=False
219.6s 3832 (norm): FrozenBatchNorm2d(num_features=1024, eps=1e-05)
219.6s 3833 )
219.6s 3834 (conv3): Conv2d(
219.6s 3835 1024, 1024, kernel_size=(1, 1), stride=(1, 1), bias=False
219.6s 3836 (norm): FrozenBatchNorm2d(num_features=1024, eps=1e-05)
219.6s 3837 )
219.6s 3838 )
219.6s 3839 (20): BottleneckBlock(
219.6s 3840 (conv1): Conv2d(
219.6s 3841 1024, 1024, kernel_size=(1, 1), stride=(1, 1), bias=False
219.6s 3842 (norm): FrozenBatchNorm2d(num_features=1024, eps=1e-05)
219.6s 3843 )
219.6s 3844 (conv2): Conv2d(
219.6s 3845 1024, 1024, kernel_size=(3, 3), stride=(1, 1), padding=(1, 1), groups=32, bias=False
219.6s 3846 (norm): FrozenBatchNorm2d(num_features=1024, eps=1e-05)
219.6s 3847 )
219.6s 3848 (conv3): Conv2d(
219.6s 3849 1024, 1024, kernel_size=(1, 1), stride=(1, 1), bias=False
219.6s 3850 (norm): FrozenBatchNorm2d(num_features=1024, eps=1e-05)
219.6s 3851 )
219.6s 3852 )
219.6s 3853 (21): BottleneckBlock(
219.6s 3854 (conv1): Conv2d(
219.6s 3855 1024, 1024, kernel_size=(1, 1), stride=(1, 1), bias=False
219.6s 3856 (norm): FrozenBatchNorm2d(num_features=1024, eps=1e-05)
219.6s 3857 )
219.6s 3858 (conv2): Conv2d(
219.6s 3859 1024, 1024, kernel_size=(3, 3), stride=(1, 1), padding=(1, 1), groups=32, bias=False
219.6s 3860 (norm): FrozenBatchNorm2d(num_features=1024, eps=1e-05)
219.6s 3861 )
219.6s 3862 (conv3): Conv2d(
219.6s 3863 1024, 1024, kernel_size=(1, 1), stride=(1, 1), bias=False
219.6s 3864 (norm): FrozenBatchNorm2d(num_features=1024, eps=1e-05)
219.6s 3865 )
219.6s 3866 )
219.6s 3867 (22): BottleneckBlock(
219.6s 3868 (conv1): Conv2d(
219.6s 3869 1024, 1024, kernel_size=(1, 1), stride=(1, 1), bias=False
219.6s 3870 (norm): FrozenBatchNorm2d(num_features=1024, eps=1e-05)
219.6s 3871 )
219.6s 3872 (conv2): Conv2d(
219.6s 3873 1024, 1024, kernel_size=(3, 3), stride=(1, 1), padding=(1, 1), groups=32, bias=False
219.6s 3874 (norm): FrozenBatchNorm2d(num_features=1024, eps=1e-05)
219.6s 3875 )
219.6s 3876 (conv3): Conv2d(
219.6s 3877 1024, 1024, kernel_size=(1, 1), stride=(1, 1), bias=False
219.6s 3878 (norm): FrozenBatchNorm2d(num_features=1024, eps=1e-05)
219.6s 3879 )
219.6s 3880 )
219.6s 3881 )
219.6s 3882 (res5): Sequential(
219.6s 3883 (0): BottleneckBlock(
219.6s 3884 (shortcut): Conv2d(
219.6s 3885 1024, 2048, kernel_size=(1, 1), stride=(2, 2), bias=False
219.6s 3886 (norm): FrozenBatchNorm2d(num_features=2048, eps=1e-05)
219.6s 3887 )
219.6s 3888 (conv1): Conv2d(
219.6s 3889 1024, 2048, kernel_size=(1, 1), stride=(1, 1), bias=False
219.6s 3890 (norm): FrozenBatchNorm2d(num_features=2048, eps=1e-05)
219.6s 3891 )
219.6s 3892 (conv2): Conv2d(
219.6s 3893 2048, 2048, kernel_size=(3, 3), stride=(2, 2), padding=(1, 1), groups=32, bias=False
219.6s 3894 (norm): FrozenBatchNorm2d(num_features=2048, eps=1e-05)
219.6s 3895 )
219.6s 3896 (conv3): Conv2d(
219.6s 3897 2048, 2048, kernel_size=(1, 1), stride=(1, 1), bias=False
219.6s 3898 (norm): FrozenBatchNorm2d(num_features=2048, eps=1e-05)
219.6s 3899 )
219.6s 3900 )
219.6s 3901 (1): BottleneckBlock(
219.6s 3902 (conv1): Conv2d(
219.6s 3903 2048, 2048, kernel_size=(1, 1), stride=(1, 1), bias=False
219.6s 3904 (norm): FrozenBatchNorm2d(num_features=2048, eps=1e-05)
219.6s 3905 )
219.6s 3906 (conv2): Conv2d(
219.6s 3907 2048, 2048, kernel_size=(3, 3), stride=(1, 1), padding=(1, 1), groups=32, bias=False
219.6s 3908 (norm): FrozenBatchNorm2d(num_features=2048, eps=1e-05)
219.6s 3909 )
219.6s 3910 (conv3): Conv2d(
219.6s 3911 2048, 2048, kernel_size=(1, 1), stride=(1, 1), bias=False
219.6s 3912 (norm): FrozenBatchNorm2d(num_features=2048, eps=1e-05)
219.6s 3913 )
219.6s 3914 )
219.6s 3915 (2): BottleneckBlock(
219.6s 3916 (conv1): Conv2d(
219.6s 3917 2048, 2048, kernel_size=(1, 1), stride=(1, 1), bias=False
219.6s 3918 (norm): FrozenBatchNorm2d(num_features=2048, eps=1e-05)
219.6s 3919 )
219.6s 3920 (conv2): Conv2d(
219.6s 3921 2048, 2048, kernel_size=(3, 3), stride=(1, 1), padding=(1, 1), groups=32, bias=False
219.6s 3922 (norm): FrozenBatchNorm2d(num_features=2048, eps=1e-05)
219.6s 3923 )
219.6s 3924 (conv3): Conv2d(
219.6s 3925 2048, 2048, kernel_size=(1, 1), stride=(1, 1), bias=False
219.6s 3926 (norm): FrozenBatchNorm2d(num_features=2048, eps=1e-05)
219.6s 3927 )
219.6s 3928 )
219.6s 3929 )
219.6s 3930 )
219.6s 3931 )
219.6s 3932 (proposal_generator): RPN(
219.6s 3933 (anchor_generator): DefaultAnchorGenerator(
219.6s 3934 (cell_anchors): BufferList()
219.6s 3935 )
219.6s 3936 (rpn_head): StandardRPNHead(
219.6s 3937 (conv): Conv2d(256, 256, kernel_size=(3, 3), stride=(1, 1), padding=(1, 1))
219.6s 3938 (objectness_logits): Conv2d(256, 3, kernel_size=(1, 1), stride=(1, 1))
219.6s 3939 (anchor_deltas): Conv2d(256, 12, kernel_size=(1, 1), stride=(1, 1))
219.6s 3940 )
219.6s 3941 )
219.6s 3942 (roi_heads): StandardROIHeads(
219.6s 3943 (box_pooler): ROIPooler(
219.6s 3944 (level_poolers): ModuleList(
219.6s 3945 (0): ROIAlign(output_size=(7, 7), spatial_scale=0.25, sampling_ratio=0, aligned=True)
219.6s 3946 (1): ROIAlign(output_size=(7, 7), spatial_scale=0.125, sampling_ratio=0, aligned=True)
219.6s 3947 (2): ROIAlign(output_size=(7, 7), spatial_scale=0.0625, sampling_ratio=0, aligned=True)
219.6s 3948 (3): ROIAlign(output_size=(7, 7), spatial_scale=0.03125, sampling_ratio=0, aligned=True)
219.6s 3949 )
219.6s 3950 )
219.6s 3951 (box_head): FastRCNNConvFCHead(
219.6s 3952 (fc1): Linear(in_features=12544, out_features=1024, bias=True)
219.6s 3953 (fc2): Linear(in_features=1024, out_features=1024, bias=True)
219.6s 3954 )
219.6s 3955 (box_predictor): FastRCNNOutputLayers(
219.6s 3956 (cls_score): Linear(in_features=1024, out_features=32, bias=True)
219.6s 3957 (bbox_pred): Linear(in_features=1024, out_features=124, bias=True)
219.6s 3958 )
219.6s 3959 )
219.6s 3960 )
219.7s 3961 [5m[31mWARNING[0m [32m[11/10 15:58:53 d2.data.datasets.coco]: [0m
219.7s 3962 Category ids in annotations are not in [1, #categories]! We'll apply a mapping for you.
219.7s 3963 
219.8s 3964 [32m[11/10 15:58:53 d2.data.datasets.coco]: [0mLoaded 2069 images in COCO format from ./train/_annotations.coco.json
…
